Neural Network Generation/matrices/W1.npy (npy, 25216 bytes, 1 tensors)

array f4 [784, 8]
000000 b4 93 84 3c 94 d7 91 bd 40 95 94 ba 44 5d 22 3d
       0.016183712 -0.071211964 -0.0011335984 0.039639726
000010 00 87 3e bc e0 7e 82 3d 38 a2 69 3c d8 98 90 3d
       -0.011628866 0.06371856 0.014259867 0.07060403
000020 f0 39 72 bc 64 0b a5 3c 5a 0f 10 bd 80 ac 95 3c
       -0.014784321 0.020147033 -0.03517089 0.018270731
000030 a5 42 99 bd 6a ed 95 bd 8c 25 82 3d 08 5a aa 3d
       -0.074834146 -0.07320674 0.06354818 0.08317953
000040 e0 83 60 3d c0 cc d9 3b 12 a2 c9 bc fa 48 8a bd
       0.054813266 0.0066467226 -0.024613414 -0.067522004
000050 0c b8 d5 3c de 94 a2 3d 50 e4 fb bb 56 f0 30 bd
       0.026088737 0.079385504 -0.007687129 -0.043197952
000060 50 e6 16 bd 36 d3 aa 3d 88 87 26 3d 60 06 c8 3c
       -0.036840737 0.083410665 0.040656596 0.024417102
000070 54 1d ce 3c 44 83 85 3d d0 0a 7a 3d 54 ca 5f 3d
       0.02516047 0.065191776 0.061045468 0.054636315
000080 e8 ae 82 3d 8c 8d 93 3d 38 ad d0 3c c0 d3 aa 3a
       0.06381017 0.07204732 0.025473222 0.0013033077
000090 80 4a af 3a 67 65 0d bd 58 64 a9 bd 08 73 4e bc
       0.0013373643 -0.034520533 -0.08271092 -0.012600668
0000a0 6c 4c 14 bd 20 a6 31 3c fc a7 2f 3d 08 d5 84 3c
       -0.036205694 0.01084283 0.04288481 0.016214862
0000b0 2c 3e cf bc 98 54 27 3c a0 a0 89 bc f8 ae 96 bd
       -0.0252982 0.01021304 -0.016800225 -0.073575914
0000c0 5c 12 44 3d fb 73 31 bd 9e 6e 2e bd 84 5d 53 bd
       0.04786907 -0.0433235 -0.04258596 -0.051602855
0000d0 e8 f7 8a 3c c0 b9 27 3c 09 02 1e bd c8 d5 a1 3c
       0.016963914 0.010237157 -0.03857616 0.01975526
0000e0 bc f8 85 3d 60 9e 77 bc 96 dd 0f 3d b4 c2 1b 3d
       0.06541583 -0.015113443 0.03512343 0.03802748
0000f0 d2 cf 2e bd bd 63 70 bd 78 e3 a7 bc 6c 64 4c 3d
       -0.04267866 -0.058688868 -0.020494208 0.049900457
000100 3f 2a 9a bd 6e fb 72 bd da 78 12 3d 16 92 43 bd
       -0.07527589 -0.059321813 0.035759784 -0.04774674
000110 b5 40 78 bd d8 74 43 3d 42 0d 7c bd 9a 6b 9a 3d
       -0.060608584 0.047718853 -0.06153608 0.075400546
000120 8e a5 98 3d 6c a1 80 3d ac e0 d6 bc 76 d9 62 bd
       0.07453452 0.06280789 -0.026230179 -0.05538317
000130 ef 49 8a bd 54 1a 9b 3c 38 4b ab 3d e6 f4 aa 3d
       -0.06752383 0.018933453 0.08363956 0.08347492
000140 a4 59 5f 3d a8 a9 01 bc a8 98 e8 3c a0 b8 d8 3b
       0.054528847 -0.007913984 0.028393105 0.006613806
000150 40 24 47 3d e8 a2 49 bc 30 0a b9 bb b0 78 f1 3b
       0.048618555 -0.012306906 -0.0056469664 0.0073691234
000160 c8 fd 4f 3d 25 f3 aa bd 3c 2a 20 3d 84 7e 89 3d
       0.050779134 -0.083471574 0.039102778 0.06713584
000170 d4 eb 5d 3d de 3e aa bd 7e 73 52 bd 04 ed 8c 3d
       0.05417998 -0.08312772 -0.051379673 0.06881145
000180 83 21 82 bd 1d b2 2d bd e6 85 0f 3d 07 60 96 3c
       -0.06354048 -0.04240619 0.035039805 0.018356336
000190 c8 87 53 3c 8c 5f 6d 3d 88 9a 32 3d b5 e5 3a 3d
       0.012910791 0.05795245 0.043604404 0.045629222
0001a0 c6 c3 4e bd d9 f8 82 bd 88 de cc bd 0e 61 2e bc
       -0.050479673 -0.0639512 -0.10003382 -0.010643257
0001b0 c6 a9 1d 3d a3 7b 87 bd 88 5e 50 bc 73 9e 0e 3d
       0.038491987 -0.06615379 -0.0127178505 0.034819078
0001c0 a3 f3 5a bd 68 ff 8f 3d 0b a3 dc bd 53 4d a6 3b
       -0.053455006 0.07031137 -0.107732855 0.0050751357
0001d0 c3 dd 98 3c ca 7f 62 bd db 99 da bc 5f ec ea 3d
       0.018660432 -0.05529765 -0.026684692 0.114708655
0001e0 41 f6 b5 3d a0 32 99 bb f0 27 30 bc 9e 57 87 bc
       0.0888486 -0.0046752244 -0.010751709 -0.016521271
0001f0 7b 5e 42 bb 1c 35 8a bc f4 ae b9 bc 06 6f 9c 3c
       -0.0029658366 -0.016871028 -0.022666432 0.019095909
000200 20 84 4b 3c 48 ab 5b 3d 1f ae 04 bd 88 7d 42 bc
       0.012421638 0.053630143 -0.032392617 -0.011870749
000210 10 4f a7 bc fd 42 1e bd 54 82 a1 bd 98 d3 5b 3d
       -0.020423442 -0.038638104 -0.07886186 0.05366859
000220 d2 1a e9 bc 14 6b 31 3d 03 58 62 bd 2e 6a 97 3d
       -0.028455172 0.04331501 -0.055259716 0.07393299
000230 5a e1 ac 3d e0 74 74 bd b8 59 7d 3d a0 f1 04 3b
       0.0844142 -0.059681773 0.06185314 0.0020285621
000240 48 05 3b 3c 0c 19 e4 3c 90 ac 42 3d 90 83 7d 3d
       0.011414833 0.027843975 0.04752785 0.061893046
000250 60 4a be 3c 14 fd 20 3d 30 4e 6f bc e0 c9 54 bc
       0.023228824 0.039303854 -0.014606044 -0.012987584
000260 16 0c 00 bd 00 ac 02 3d cb df ab bd 1d ea ad bd
       -0.031261526 0.031902313 -0.083922945 -0.08491919
000270 80 08 09 bd 30 34 e8 3b 8d 65 4d bd ac 56 d1 3c
       -0.03345537 0.0070862994 -0.050145674 0.025554024
000280 36 fb 79 bd a0 e0 73 bd fe 10 81 3d 6d d1 97 bd
       -0.06103059 -0.05954039 0.06302069 -0.07412992
000290 e8 b0 23 3d 2a a8 6d bd 04 9a a5 3d 17 fd 82 bd
       0.039963633 -0.058021702 0.08086017 -0.06395929
0002a0 70 03 22 bd 72 09 4e bd 68 4c 8b 3d c6 cc 8a 3d
       -0.03955406 -0.050301977 0.06801683 0.06777339
0002b0 78 5f 23 3d f2 49 98 3d 9b c7 39 bd e4 b7 7f 3d
       0.039885968 0.07435979 -0.045356374 0.06243123
0002c0 28 25 10 bd 2c 34 4a 3d 52 57 19 3d 77 43 ac bd
       -0.035191685 0.04936616 0.03743679 -0.084113054
0002d0 c0 cf 97 3c c1 96 0c bd 7c 34 78 3d ed be 32 bd
       0.01853168 -0.034323458 0.060596928 -0.043639112
0002e0 ed 3a 29 bd 12 fe 83 3d c4 6d 33 3d c8 f4 70 3d
       -0.04131596 0.064449444 0.043805853 0.05882719
0002f0 78 98 85 3d 68 a3 86 3d 40 7b 68 3c 6b c4 5a bd
       0.06523222 0.06574136 0.014189541 -0.053409975
000300 a4 b4 92 bc c0 0d 99 3d 1c 64 98 3d f0 37 c8 bb
       -0.017908402 0.07473326 0.07440969 -0.006110184
000310 cc 74 ef 3c 9c cb 57 bd e4 a6 44 3d 34 4a 05 bd
       0.029230498 -0.05268441 0.04801072 -0.03254147
000320 54 b1 6e 3d e1 60 74 bd fe 41 78 bd 01 02 89 bd
       0.058274582 -0.059662703 -0.06060981 -0.06689835
000330 72 cc aa bd 8c bc 30 3d 00 5b 51 3a 10 9d 92 3b
       -0.08339776 0.043148562 0.00079862773 0.0044742897
000340 6e a3 89 bd 9c 6b f6 3c 99 62 5e bd f8 14 84 bc
       -0.06720625 0.030080609 -0.05429325 -0.01612328
000350 6e 5d 8d 3d 98 08 4d bc c0 c0 8c 3d 18 1f 3f 3d
       0.06902586 -0.012514256 0.06872702 0.046660513
000360 38 4c 19 3d a0 f7 4f bb a7 c4 97 bd e1 54 3d bd
       0.037426203 -0.003173329 -0.07410555 -0.046223525
000370 ce f8 2b bd be 79 30 bd 2c 6a a4 bd 72 24 cd bc
       -0.041985326 -0.043084852 -0.08028063 -0.025041793
000380 fc 94 bd bc 00 d6 09 bd 4c 75 e0 3c 60 c9 d4 3c
       -0.02314233 -0.033651352 0.027399682 0.02597493
000390 70 1b 97 3d a7 aa 1f bd 9c 14 31 bd 1a 5a 90 3d
       0.0737828 -0.038981106 -0.043232545 0.070484355
0003a0 34 99 4b 3d 6c 22 b5 3c bc c1 39 3d 08 e2 7d 3d
       0.049706653 0.02211114 0.045350775 0.06198314
0003b0 28 71 59 bc 26 86 85 bd 50 15 cf 3c 4c bc 9d 3d
       -0.013271607 -0.065197274 0.025278717 0.077019304
0003c0 d8 40 81 3d 02 58 aa bd 84 f4 37 3d 4c 97 56 3d
       0.06311196 -0.083175674 0.044910923 0.05239038
0003d0 fa c3 0e 3d 72 73 8f 3d 86 05 a0 3d 3e 9d f5 bc
       0.034854867 0.07004441 0.078135535 -0.029982205
0003e0 32 8d 79 bd 58 94 00 bc 30 3e ae 3b b4 7d 52 3d
       -0.06092567 -0.007847868 0.005317472 0.05138941
0003f0 10 44 8a 3b 5e 72 28 bd d0 1e 57 3d 28 b1 17 3d
       0.0042195395 -0.041124694 0.05251962 0.037034184
