Neural Network Generation/matrices/W2.npy (npy, 2176 bytes, 1 tensors)

array f4 [8, 64]
000000 88 0f 82 3e 06 58 26 3d ca 13 00 3e 7a f6 07 be
       0.25402474 0.04061129 0.12507549 -0.13277617
000010 98 7a b2 3d 6e 55 53 3c 71 19 1c be ed 0b a5 be
       0.08714789 0.012898786 -0.1524408 -0.3223566
000020 38 ae 4b 3e 00 51 5f 3e a3 3f ad 3e 3f fa 1e be
       0.19890678 0.21808243 0.33837613 -0.15525149
000030 39 68 b0 3e ca bd 8b be bf f4 40 3d dc a4 64 3e
       0.34454516 -0.27293235 0.047108408 0.22328514
000040 18 44 cf 3d 50 2c 82 bd d4 85 a2 bd 41 eb ef 3c
       0.1012041 -0.06356108 -0.07935682 0.029286982
000050 87 66 f5 3e ea 76 56 3d 33 a4 ad 3e fa 8d 5c be
       0.47929785 0.0523595 0.33914337 -0.21538535
000060 0a 2d 47 be ea 33 96 be dc 3d 65 3e 03 e4 87 bd
       -0.19450775 -0.29336482 0.22386879 -0.06635287
000070 f9 88 88 3e 9a 12 66 bd c2 46 29 3d 94 12 83 be
       0.26667002 -0.056170084 0.041327246 -0.2560011
000080 7e c6 d8 3e 43 44 de 3e e8 70 8b 3e cc d9 eb 3d
       0.42338938 0.43411455 0.27234578 0.11516151
000090 b8 e2 1d be 1a ac d7 3d 05 a5 69 be a2 fe 96 3e
       -0.15418518 0.10530873 -0.22816856 0.29491144
0000a0 c6 5b a6 3e ed 5a 57 bb fa c6 91 bc 71 ce 2c 3e
       0.32491893 -0.0032860592 -0.017795075 0.16875626
0000b0 6a e7 7d bd be 44 07 3d e9 4f 9f be 53 76 56 be
       -0.06198827 0.033024542 -0.31115654 -0.20943575
0000c0 44 c4 1d 3e ae 65 72 bd 00 c4 66 3e a7 52 51 3e
       0.154069 -0.059179 0.22535706 0.20441686
0000d0 2f 46 bb 3e 66 75 d4 3e ce 47 15 be dc 89 03 be
       0.36576983 0.41495818 -0.14578173 -0.12845558
0000e0 40 bb 13 be df fa 0e be 19 df 5f bc 76 0f ca 3e
       -0.14426899 -0.13962887 -0.0136640305 0.3946492
0000f0 d2 51 a3 3e 72 c6 81 3d b6 97 87 bd 40 cd af 3e
       0.3189836 0.063366786 -0.066207334 0.3433628
000100 23 9c 1b be 66 bc 09 3e 5c f8 16 3d 68 93 85 3e
       -0.1519628 0.13450775 0.036857948 0.26089025
000110 c6 90 7d be da 31 80 3d e0 da 39 3e 92 73 94 3c
       -0.24762258 0.062595084 0.181499 0.018121514
000120 e9 5c 96 3e e6 b8 19 be 91 c7 0c 3b 15 40 cd 3d
       0.2936776 -0.1501194 0.0021481256 0.10021988
000130 fc 96 49 be 03 be 3d 3e f4 d1 05 3e ea 0a 75 3e
       -0.19686502 0.18529515 0.13068372 0.23929945
000140 2f 98 66 be bf ed 56 3e ed e3 8c be b9 f1 2e 3e
       -0.22518991 0.2098913 -0.27517644 0.17084397
000150 3f 65 87 3e 38 df b6 bc d9 5a 9d 3e 90 12 71 3e
       0.26444432 -0.022323236 0.30733374 0.23542237
000160 77 be 54 be 8c 6e 73 3d 78 cb 5e be 98 18 2c be
       -0.20775782 0.059431598 -0.21757305 -0.16806257
000170 33 d1 8e bd 5b cd 07 3c fe 4e 0c 3d a0 08 08 bd
       -0.06973495 0.008288707 0.03425502 -0.03321135
000180 8b 2f 8a be d3 19 9d 3e 02 ea 84 be 04 af 29 3e
       -0.26989397 0.30683765 -0.25959784 0.1657067
000190 c6 2c fb 3c bc c5 97 bd 24 ec 77 3e 64 55 2d be
       0.030660998 -0.07410762 0.24211174 -0.16927105
0001a0 75 0d 51 b9 b8 60 8e bd f5 30 8b be ad 29 7b be
       -0.00019936806 -0.069520414 -0.2718579 -0.24527617
0001b0 65 39 4f be b6 f8 f8 bd b7 67 24 3e 13 db 36 3e
       -0.20236738 -0.12156813 0.16055189 0.17857008
0001c0 8b 83 86 3e bb 73 33 3e 2c b1 74 be b3 09 5d 3e
       0.26272234 0.17524616 -0.2389571 0.21585731
0001d0 74 12 71 be 3c 00 09 be 82 a3 99 bd 82 59 1b 3e
       -0.23542196 -0.13378996 -0.0750189 0.15170863
0001e0 4d 87 37 3e af ad 0e be 35 f7 09 bc a8 9d 23 3e
       0.17922707 -0.13933443 -0.008420755 0.1597811
0001f0 45 b0 64 be 32 fd 3a be b7 7d a2 bd ee 58 45 be
       -0.22332866 -0.18260649 -0.079341345 -0.19272205
000200 da 5c 6c 3c 8b 1e 53 be f8 6d 30 3e e7 d5 aa 3d
       0.014426434 -0.2061712 0.1722945 0.0834158
000210 71 bb 01 3e c7 4c 03 be dc fe 71 3e c5 87 aa be
       0.1266916 -0.12822257 0.23632377 -0.3330671
000220 f4 47 67 be 13 eb 34 be 9c 99 2a be e6 56 49 bd
       -0.22586042 -0.17667799 -0.1666016 -0.04915514
000230 ab 59 a6 3e 8b f3 77 3d 8a 2c 00 bd 50 2b 6a be
       0.32490286 0.060534995 -0.031292476 -0.22868085
000240 70 12 de 3b 9c 51 05 3f 37 04 ad 3c 2f 41 b9 be
       0.0067771003 0.5207765 0.021120174 -0.36182544
000250 fc 91 72 bd df 1a 35 be 0b a4 b0 bd 22 34 de 3e
       -0.059221253 -0.17686032 -0.08625039 0.4339915
000260 88 07 7f bd 09 ff 41 3e cd af 2e 3e fa b9 62 bb
       -0.06226304 0.18944944 0.1705925 -0.0034595714
000270 22 27 09 be 14 12 63 3d a1 d9 67 be a3 6d 28 be
       -0.13393834 0.055437163 -0.22641613 -0.16448073
000280 f9 81 b2 be 37 62 6e 3e 65 d6 0f 3e c4 ad 96 be
       -0.34864786 0.23279653 0.14046629 -0.29429448
000290 f9 6f 2e bd cd 72 4b be 53 ac 40 be af 9f 89 3e
       -0.042587254 -0.19868012 -0.18815736 0.2687964
0002a0 a1 e8 9d 3d ff 68 a8 3e b5 14 6c 3e c4 cc 60 be
       0.07710386 0.32892606 0.23054774 -0.21953112
0002b0 ad 4e e7 3e 7d 2c 88 be a4 20 aa 3e c5 a4 b8 be
       0.45177212 -0.26596442 0.33228028 -0.3606321
0002c0 50 ca 4d be 54 ab 8d be 97 70 61 3e 98 4c ad be
       -0.20096707 -0.27669775 0.22015606 -0.338475
0002d0 cd 0c 12 3e 96 95 dc 3d 69 2c 07 be 91 5c 27 be
       0.14262696 0.10770719 -0.13200535 -0.16343905
0002e0 00 1b 16 3e 44 03 72 be b5 ed 69 be ce a0 58 3d
       0.14658737 -0.23634058 -0.22844584 0.05288773
0002f0 84 31 c2 bd bb 12 83 be 56 4e be be 94 21 c3 3e
       -0.094821006 -0.25600228 -0.3716914 0.38111556
000300 a9 ba d5 be 86 63 48 bf e6 4e 3d 3e 5c b0 90 3d
       -0.41743973 -0.7827686 0.18487129 0.07064888
000310 be 81 4c 3e 52 b4 ec be c4 97 96 3e cf 29 bd 3c
       0.19971368 -0.46231323 0.29412663 0.023091225
000320 1b 1f c7 be 92 eb cb 3d cc 5d a3 3e 03 b4 82 be
       -0.3889092 0.09957041 0.319075 -0.25527963
000330 85 cc 13 3e d6 78 2b be 4a 9a 42 be 29 26 f9 be
       0.14433487 -0.16745314 -0.19004169 -0.48661926
000340 d5 44 05 3e a3 04 8b 3e 9c 6e f7 bd e5 4e be 3e
       0.13014539 0.27151975 -0.12081644 0.37169567
000350 a1 5f d6 3e c1 97 0c 3f fe e0 89 3d 8f 62 4c 3e
       0.41869834 0.5491906 0.06732367 0.19959472
000360 47 56 0e 3f 54 ea 6c 3e 95 41 a1 3e 56 c4 ec bd
       0.556004 0.23136264 0.31495348 -0.115608856
000370 76 43 d8 3e f0 b7 f5 3e 5e 50 3e be db dc 19 be
       0.4223897 0.47991896 -0.18585345 -0.15025656
000380 7e be c1 bd b0 ee 7e be c9 8f 52 bd b7 42 2e bf
       -0.094601616 -0.2489574 -0.051406655 -0.6807055
000390 51 3b 60 3e 94 c9 c9 bd aa 52 8b bd 05 7d 14 be
       0.21897627 -0.09852901 -0.06802876 -0.14500816
0003a0 23 88 fa 3e 32 4c 93 be 27 91 3c be 9e 9f 8f 3d
       0.4893199 -0.2876907 -0.18414746 0.070128664
0003b0 a4 dd 78 3e e9 e6 7c bd 7a f7 17 be 4b 56 14 3e
       0.24303299 -0.06174365 -0.14840499 0.14486043
0003c0 03 3b 3b 3e d0 7e 79 bd cb 7f b6 be a6 7d 96 bb
       0.1828423 -0.060911953 -0.35644373 -0.004592615
0003d0 ea fa 98 be bb 52 06 3e 1a 2e 18 3f 37 f5 2a be
       -0.29878932 0.13117497 0.59445345 -0.16695105
0003e0 a1 4f 21 3d 96 78 6e 3e 87 dd dd 3d fc 58 d2 be
       0.03938258 0.23288187 0.108332686 -0.41083515
0003f0 6f 82 db bd 88 e3 ca bd 78 11 1d 3e d5 f6 6f 3e
       -0.107182376 -0.099066794 0.15338695 0.23434003
