Neural Network Generation/matrices/W3.npy (npy, 8320 bytes, 1 tensors)

array f4 [64, 32]
00000000: 0d86 c23d 7d4f b4bd 1253 453e 2620 163d
00000010: d40f 9ebc f074 e8bd b2e8 a63e 2f8e cabd
00000020: 7ad3 8b3e ed76 75bd a7b6 fabc 4323 f73c
00000030: 0cc3 5d3e 5156 953e aa4a 3cbe 47bb 3f3e
00000040: ce3f 9dbd c035 433e 777e aa3e 5e3a 0ebd
00000050: 1cef 45be 0b59 c03e e3f5 bd3d 08e6 9e3e
00000060: bee0 053e 6349 783e 4610 0fbe 83b2 25be
00000070: c139 5dbe 09c5 74bd c39c 12bd 04eb 083e
00000080: eac7 d53e d266 d83e 45f2 0bbe 2e9d 06be
00000090: 964b e4be a453 23be 6174 243e d9ad f53c
000000a0: 6340 0c3f 8097 863e d2df e13d 0046 ddbd
000000b0: a26b 4bbd 926a e33c d392 c13e 0e3e acbc
000000c0: eb3c e23e 4fda 643e fa08 283f d924 5fbe
000000d0: 484f d63e d46b 7f3b f241 87be 1af7 f03e
000000e0: fcb2 a4be 3979 32be 8227 b33d fe45 593e
000000f0: fe76 4bbe a6e7 3ebe 2255 8d3e 6f01 1abe
00000100: a3e8 37be 8b48 cbbe 6de2 a1bd 02b1 bdbd
00000110: 86c9 f93e 036c 003e b36e 87bd 5a13 893d
00000120: b44d 713c 9825 28be 2463 08be 0c4a f8bd
00000130: 786c 2ebe c346 c33d b19a 9d3c 23a0 373d
00000140: bf92 abbe a7ce 87be 4753 a83c 15b1 67be
00000150: 6190 46be b46f 4bbe 70dc a13e b299 b1be
00000160: c2c5 d13c bc5b 4e3e 15c9 65be 0c30 403e
00000170: 0fe6 963e 94f5 2a3e 3e21 343e d29a 8f3d
00000180: 847d c53d 9c97 5fbe c201 50bd e026 3bbe
00000190: b9bb d0be 50ab 31be f4ba a13e 443b 783d
000001a0: 10c9 4c3d 12cc dc3c 1ae9 c33d fa04 4c3e
000001b0: 55aa 0bbe c438 933e b88a 1cbe d14d 4a3e
000001c0: cb90 91bd 50a4 243e ab71 c9bd 2aa4 3a3e
000001d0: e3c3 06be eef9 123c 41f4 94be 4730 ba3d
000001e0: 9a3e c4be b9f1 b8bc 3f3c 623d 4493 49bb
000001f0: 1dd5 19be 8811 ca3e 1cd6 8b3e b401 8bbe
00000200: 27a0 773e d657 0dbe 573e 41be 5126 70be
00000210: 82a1 6d3e 8eea 173e b112 af3d 762a 81be
00000220: bc71 8b3e f19d 37bd 420e 8cbd 5477 90bc
00000230: dd09 af3b 62c9 773e 48c2 893d bb1d 6a3d
00000240: 5fae 20be cd64 06be 684a 5fbe a197 35be
00000250: 6bb6 103e 7444 6f3e 9d93 863e 8db5 2c3e
00000260: 12b1 3e3d 5021 2e3e c88f 5e3c 0680 c63d
00000270: d96c a5bd 4d5b 133e 200a 053d 4bd8 99bd
00000280: 010a 093f 22a1 89bc eed6 4f3e 75a3 28be
00000290: 19eb 1cbd 9851 5c3e 64e9 0b3f 5398 0e3e
000002a0: 178f cdbd 11f5 0c3e 9713 773d 9079 7b3b
000002b0: 403c e7bd 8c22 ecbd ce02 613e fa54 05be
000002c0: ca9f 173e c74a f23d eb13 64be b960 09be
000002d0: d210 74be 4498 c23e 8055 bdbe ab27 4d3e
000002e0: bce4 bebe ecad 903e 1a46 093e 15cc f6bd
000002f0: 9d2e 06be 73a0 4e3e 2c5c 4fbd 8f93 86be
00000300: 685a 873e f06f c7be 945b 72be d494 363e
00000310: 7595 513e 5277 a93d 1991 883e 3f3b 03be
00000320: 68d1 003f 6cb9 2d3e eacb 59bd 9580 8e3e
00000330: 8772 463d a33d 32be 57ca 97be fb5b ec3d
00000340: 32ed 88be 7f2d 2c3e 13e1 a5bd 2436 823d
00000350: fe60 323e 55f8 283d 4f97 47bd 3ac9 b43e
00000360: 354b 30be cb12 02be 92b8 22be b7ac ba3d
00000370: 4eff bfbd 4057 f1be cbbb d73e 7912 e53e
00000380: 1120 b3bd 21d8 d13e 452e 9cbc 9a41 00be
00000390: 5ed4 31bf 2440 67be 8129 c23d 1bd4 2f3e
000003a0: 6927 c33d c906 553e 933d 173e c127 8ebd
000003b0: 337f 003d 7c0b ce3d 0361 ddbe 9847 553b
000003c0: 06a0 003f 335a 033d 0937 ba3d 0383 8cbd
000003d0: 51ce 4c3c 9311 5f3d 8772 ae3e e5d1 be3e
000003e0: 2d13 59be 15b2 91bc 42b7 a7be 085e 61be
000003f0: 4ece 72bd 1fd3 91bd 5e76 3f3f 4974 d0be
0.094982244 -0.08804224 0.1926997 0.036651753 -0.019294657 -0.11350429 0.32599407 -0.098904006
0.2730978 -0.05992787 -0.030604674 0.030168181 0.21656436 0.29167417 -0.18387857 0.18723784
-0.076781854 0.19063473 0.3329961 -0.034723632 -0.19329494 0.37567934 0.09275415 0.31034875
0.13074014 0.24246745 -0.13971052 -0.16181378 -0.21604063 -0.05975822 -0.03579403 0.13370901
0.41754085 0.42265946 -0.13666637 -0.13145897 -0.44588917 -0.15949875 0.1606002 0.029990124
0.54785746 0.2628746 0.110290185 -0.10804367 -0.049663194 0.027760778 0.3780733 -0.021025684
0.44187102 0.22348903 0.656387 -0.217914 0.41857362 0.0038974183 -0.264175 0.47063524
-0.32167804 -0.17429055 0.0874777 0.21218106 -0.1986961 -0.18643054 0.27604014 -0.1503961
-0.17959838 -0.39703783 -0.079045154 -0.09262277 0.48786563 0.12541203 -0.06612911 0.06693144
0.0147279985 -0.16420591 -0.13319069 -0.12123498 -0.17033565 0.09534981 0.019238802 0.044830453
-0.33510396 -0.2652485 0.020547522 -0.22626145 -0.19391014 -0.1986683 0.31613493 -0.34687573
0.025606994 0.20152181 -0.22439988 0.18768328 0.29472396 0.16695243 0.17590806 0.070119515
0.09643081 -0.21835178 -0.050782926 -0.18276548 -0.4076822 -0.17350507 0.31587946 0.060603395
0.049996436 0.026952777 0.09565945 0.19923773 -0.13639195 0.28754246 -0.15287292 0.19756247
-0.07107695 0.16078305 -0.098361336 0.18226686 -0.13160662 0.008970721 -0.290926 0.090912394
-0.3832901 -0.0225762 0.055233236 -0.0030757943 -0.15022703 0.394665 0.2731179 -0.27149737
0.24182187 -0.13803038 -0.18871437 -0.23452117 0.23206142 0.1483557 0.08548487 -0.25227708
0.2723521 -0.04482836 -0.06838657 -0.017635025 0.005341752 0.24197915 0.06726509 0.05715726
-0.15691517 -0.1312439 -0.21805727 -0.17733623 0.14132087 0.23365957 0.26284495 0.16866131
0.046555586 0.17004895 0.013584085 0.09692387 -0.08077402 0.14390297 0.03248036 -0.07511958
0.5353089 -0.016800467 0.20296833 -0.16468604 -0.038310144 0.215155 0.54653 0.13925295
-0.10037058 0.1376536 0.060321417 0.0038372017 -0.11290789 -0.11530027 0.21973726 -0.13020697
0.14807048 0.11830669 -0.22273223 -0.13415803 -0.23834541 0.38006794 -0.36979294 0.20034663
-0.37283885 0.28257692 0.13405648 -0.12050644 -0.13103719 0.20178394 -0.05062501 -0.26284453
0.26436162 -0.3895259 -0.23667747 0.17830211 0.2046717 0.08274712 0.266732 -0.1281557
0.5031953 0.16965264 -0.053172983 0.27832475 0.048449066 -0.17406325 -0.2964656 0.115409814
-0.26743466 0.1681423 -0.0809957 0.06357983 0.17419812 0.041252453 -0.048728283 0.35309774
-0.17216189 -0.12702481 -0.1589072 0.09114974 -0.093748674 -0.4713688 0.42135462 0.44740656
-0.087463506 0.40985206 -0.019065032 -0.12525025 -0.6946467 -0.22583061 0.094805725 0.17170756
0.09529001 0.2080337 0.14769582 -0.06941176 0.031371307 0.10060784 -0.43238077 0.0032543894
0.50244176 0.032068443 0.090925284 -0.06860926 0.012500362 0.05446012 0.34071752 0.37269512
-0.21198721 -0.017785111 -0.32757002 -0.22008526 -0.05927878 -0.07120346 0.7478999 -0.4071372
