Neural Network Generation/matrices/W4.npy (npy, 1408 bytes, 1 tensors)

array f4 [32, 10]
000000 66 b2 f0 be 03 b8 64 3e b6 15 c4 be f3 95 a8 3e
       -0.47011107 0.2233582 -0.38297814 0.32926902
000010 95 15 2b be b6 10 cc be 66 c2 01 3e 7d b9 12 bd
       -0.16707452 -0.398565 0.12671813 -0.035821427
000020 2e c4 d3 be 44 a3 b6 be 86 a7 2a be ad 12 db be
       -0.4136061 -0.35671437 -0.16665468 -0.42787686
000030 32 3b 1f bf 02 cc a8 bd 56 21 ff be 74 28 03 bf
       -0.621997 -0.082420364 -0.4983012 -0.512336
000040 78 05 b3 3d 43 5c 0d 3f c5 a7 00 bf 4e 67 50 bf
       0.087412775 0.55218905 -0.50255996 -0.8140763
000050 93 50 43 3d 28 d2 38 bd 37 02 d4 3d ab ce 0a 3e
       0.047684263 -0.045122296 0.10351985 0.135554
000060 c7 49 8a 3e 12 1d 83 3e c5 6d 49 3c b5 2d ca 3c
       0.27009413 0.25608116 0.0122942375 0.024679998
000070 98 a1 57 3d 7e 48 a8 be 05 c9 51 3e 42 8e 2d 3e
       0.052644342 -0.32867807 0.20486839 0.16948798
000080 70 86 b9 bb f4 a2 3f bd 59 3d 96 3e e9 63 93 3e
       -0.005661778 -0.046786264 0.2934368 0.28787163
000090 32 ba 31 bd 81 8b 0d be 3a 00 8c be 5b 29 c0 3d
       -0.04339046 -0.13822748 -0.27343923 0.09382888
0000a0 67 b7 37 be 2e af b8 be 95 c2 05 bf 0d 41 62 bb
       -0.17941056 -0.36071151 -0.52250034 -0.0034523637
0000b0 84 dc 9b 3e f6 3a 30 3e 1e 47 ac 3e f4 e5 d1 be
       0.30441678 0.17209992 0.33648008 -0.40995753
0000c0 1c 1a 9b be 69 e2 9e bc da 90 6c 3e ed 38 45 3e
       -0.30293357 -0.01939507 0.23102131 0.19259997
0000d0 42 89 98 be c8 67 e3 bc a8 1c 06 be a1 a6 fe bd
       -0.2979222 -0.027759448 -0.13096869 -0.12434126
0000e0 1b 8c 66 3e 98 75 a7 3d 7f 32 95 3e 36 1d 3b be
       0.22514383 0.08176726 0.29140088 -0.18272862
0000f0 ff 36 de be 23 ae 8e 3e 6a fd 1b bf 4e e6 59 3e
       -0.43401334 0.2786723 -0.60933554 0.2127926
000100 0a fe aa 3d 5b 93 17 bf 2e 7d 70 bd d1 0b 58 bd
       0.08349235 -0.5920922 -0.05871313 -0.052745644
000110 3f 4e f7 be ca 1c 77 3e 28 72 15 3e 99 30 e5 be
       -0.48301885 0.24132076 0.14594328 -0.4476364
000120 30 b6 89 3e ee 75 4b 3d 54 37 a3 3e 44 b1 f1 3e
       0.2689681 0.049673013 0.3187815 0.47205555
000130 3c 4f ce bd 50 07 04 bf 3d af 05 bf bb 06 09 3d
       -0.100737065 -0.5157366 -0.5222052 0.033453684
000140 62 f9 fd be 26 20 0e bf 7b 7c 0e 3d 15 85 84 3e
       -0.49604326 -0.55517805 0.034786683 0.25882784
000150 9c c6 c7 be c7 fc 20 3f b0 a7 67 be e4 8e 2e 3e
       -0.39018714 0.6288571 -0.22622561 0.17046696
000160 23 07 8c 3e 5b 5f f4 3c ab f2 90 3e f0 46 89 3e
       0.27349195 0.029830625 0.2831014 0.26811934
000170 9d 7d ad 3e c3 cc c4 3c f9 a1 eb be 9c 76 d7 3d
       0.33884898 0.02402342 -0.46022013 0.1052067
000180 6c 54 69 3e cd ec e5 be a6 3d 9f 3e 8b a2 3e bf
       0.2278611 -0.44907227 0.31101722 -0.7446677
000190 24 6d a1 3e f3 33 04 3e c2 22 2f be 4f 9a 56 3e
       0.3152858 0.12910442 -0.17103103 0.20957302
0001a0 70 3e e4 bc 77 c3 8b 3e b5 33 c2 be e5 09 62 3e
       -0.027861804 0.27297565 -0.37930074 0.22074087
0001b0 25 d8 84 bd 42 fd 09 3e 11 50 a7 be 5d 5e 92 be
       -0.06486539 0.13475516 -0.32678273 -0.28587618
0001c0 82 6a 69 3e 1d 18 0b 3f b2 17 a6 bd 69 35 1e 3e
       0.22794536 0.5433367 -0.08109988 0.15450062
0001d0 ba 95 85 3d 75 bb 0e 3f 6e 18 4e 3d 98 0e 21 3c
       0.06522699 0.55754787 0.050316267 0.00983014
0001e0 ce 9a bd be e0 f9 98 3e 64 7c e9 bd cd 6a aa be
       -0.3703217 0.2987814 -0.11400679 -0.33284608
0001f0 2d a2 45 3e cf ba a0 3e eb 71 40 be 28 ad 10 be
       0.19300146 0.31392524 -0.18793456 -0.14128554
000200 9b 73 80 3e 91 52 9d bd 4c 85 bd bd a8 01 e9 be
       0.250882 -0.07681764 -0.0925394 -0.45509076
000210 b8 bb cf bd f8 1c 56 3e 59 64 bf be e9 1c 08 ba
       -0.101432264 0.20909488 -0.37381247 -0.0005192296
000220 68 27 17 3e 7c 73 c0 3d 40 2b a2 3e cf ef 03 3f
       0.14761126 0.09397027 0.31673622 0.51537794
000230 ec b2 8a be cb df d0 3e 3e d4 48 3c 14 10 fe be
       -0.27089632 0.4079574 0.012257634 -0.49621642
000240 a4 1b 4b bf 22 7a 5b 3c 1b a7 52 3e f6 b0 cc bd
       -0.7933905 0.013395818 0.20571558 -0.0999469
000250 60 fa 16 bf 85 db ca be 36 51 ce 3e 61 22 61 be
       -0.5897579 -0.39620605 0.40296334 -0.21985771
000260 ac 28 72 3e 8e 7f 65 be 5b c8 bc be 8b 7e 84 3e
       0.23648328 -0.2241194 -0.3687161 0.25877795
000270 5c b1 46 be f7 92 25 3f 15 2d 3c bf 16 ce 33 3d
       -0.19403595 0.64677376 -0.7350629 0.04389771
000280 54 15 be be 4a f9 da bc c6 2e c6 3e 24 6d f0 be
       -0.37125647 -0.026730198 0.3870756 -0.46958268
000290 70 bd ef 3d 39 f6 bd bd 60 43 11 be bd 02 22 3e
       0.11706054 -0.09275479 -0.14185858 0.15821357
0002a0 28 8a 6a be a5 a9 d6 be 0d 20 a7 be 4c 56 99 3e
       -0.22904265 -0.41926304 -0.3264164 0.29948652
0002b0 54 1b 3a 3e 36 49 93 bd 68 ca a2 3d 9c 5f 80 bd
       0.18174487 -0.07191698 0.07948762 -0.06268236
0002c0 4a 7b 86 be d1 7c 68 3e 21 70 b0 bd 27 f5 69 3e
       -0.26265937 0.22703864 -0.08615137 0.22847424
0002d0 19 4e 26 bd 1a 33 97 be 8d 9e e3 bd 3e cf 94 be
       -0.040601823 -0.29531175 -0.111142255 -0.29064363
0002e0 f2 40 38 be 14 af 7a 3d a8 a9 8c be 24 f1 6c 3e
       -0.17993525 0.061202124 -0.27473187 0.23138863
0002f0 9e 90 57 be 4e a8 1c 3e d7 fe 6a 3d 9b 28 84 3e
       -0.21051261 0.15298578 0.05737194 0.2581223
000300 6e a5 e9 bd 18 4e 90 be b1 5b 7b 3e e3 db 80 be
       -0.11408506 -0.2818458 0.24546696 -0.2516776
000310 58 b0 39 be 9e 60 8e 3d e5 a8 0d 3e 20 21 18 bd
       -0.18133676 0.06952022 0.1383396 -0.037140965
000320 5e b7 ed be 37 aa 9e be 91 26 4a 3e 57 22 f2 be
       -0.4642896 -0.3098924 0.19741274 -0.47291824
000330 cc 4e 5c 3d 51 f7 2a 3e 32 ff cc bd 1c fa 3e 3e
       0.053786084 0.16695906 -0.10009612 0.18650097
000340 e4 41 24 be 7c ad 1f be 7a 39 33 bf b9 01 8c 3e
       -0.1604076 -0.15593523 -0.7000958 0.27345064
000350 d9 da 02 3e 48 aa ef be c2 c8 f2 3d 52 59 42 be
       0.12778796 -0.46809602 0.11854698 -0.18979385
000360 9a 8d 3c bf 26 d9 aa 3e 41 26 81 3e 76 27 53 be
       -0.73653567 0.33368796 0.25224498 -0.20620522
000370 38 b3 0e 3d 7e aa fe bd cd 50 07 bf 94 4c 1a bf
       0.034838885 -0.124348626 -0.5285767 -0.602731
000380 8a 57 8a 3e d9 7d 2f be d8 18 ad be b4 04 23 3e
       0.27019912 -0.17137851 -0.33808017 0.15919763
000390 90 a1 12 bf cb 18 57 be 84 db 2d be 72 3f d5 3d
       -0.57277775 -0.21005552 -0.1697827 0.10412492
0003a0 f9 d9 21 bc 40 f6 9d 3e 0f 36 96 be b5 fa 5a be
       -0.009878629 0.30851936 -0.29338118 -0.213847
0003b0 ca d9 e7 be e5 de ac be f0 91 4e ba 3d 5f ea bc
       -0.45283347 -0.33763805 -0.0007880023 -0.028609866
0003c0 ab e5 81 be 63 4a 1a 3e f4 68 f1 bd 00 00 f4 be
       -0.25370535 0.15067439 -0.11787596 -0.4765625
0003d0 66 49 44 3e 02 c6 c7 bb 2e 53 cb 3e 8b 33 3d be
       0.19168624 -0.0060966024 0.397119 -0.18476693
0003e0 0a 25 e9 3e 89 73 82 bd ae 24 43 3e 1b a5 e5 bd
       0.4553607 -0.06369693 0.19056961 -0.11213132
0003f0 88 78 f4 be 3e 43 71 3e e1 66 b1 be da 40 cc be
       -0.47748208 0.23560807 -0.34648803 -0.39893228
